…
rWarning: pytorch_quantization module not found, quantization will not be available\n","  warnings.warn(\n","/root/.cache/torch/hub/NVIDIA_DeepLearningExamples_torchhub/PyTorch/Classification/ConvNets/image_classification/models/efficientnet.py:17: UserWarning: pytorch_quantization module not found, quantization will not be available\n","  warnings.warn(\n","Downloading checkpoint from https://api.ngc.nvidia.com/v2/models/nvidia/tacotron2_pyt_ckpt_amp/versions/19.09.0/files/nvidia_tacotron2pyt_fp16_20190427\n"]},{"output_type":"execute_result","data":{"text/plain":["Tacotron2(\n","  (embedding): Embedding(148, 512)\n","  (encoder): Encoder(\n","    (convolutions): ModuleList(\n","      (0-2): 3 x Sequential(\n","        (0): ConvNorm(\n","          (conv): Conv1d(512, 512, kernel_size=(5,), stride=(1,), padding=(2,))\n","        )\n","        (1): BatchNorm1d(512, eps=1e-05, momentum=0.1, affine=True, track_running_stats=True)\n","      )\n","    )\n","    (lstm): LSTM(512, 256, batch_first=True, bidirectional=True)\n","  )\n","  (decoder): Decoder(\n","    (prenet): Prenet(\n","      (layers): ModuleList(\n","        (0): LinearNorm(\n","          (linear_layer): Linear(in_features=80, out_features=256, bias=False)\n","        )\n","        (1): LinearNorm(\n","          (linear_layer): Linear(in_features=256, out_features=256, bias=False)\n","        )\n","      )\n","    )\n","    (attention_rnn): LSTMCell(768, 1024)\n","    (attention_layer): Attention(\n","      (query_layer): LinearNorm(\n","        (linear_layer): Linear(in_features=1024, out_features=128, bias=False)\n","      )\n","      (memory_layer): LinearNorm(\n","        (linear_layer): Linear(in_features=512, out_features=128, bias=False)\n","      )\n","      (v): LinearNorm(\n","        (linear_layer): Linear(in_features=128, out_features=1, bias=False)\n","      )\n","      (location_layer): LocationLayer(\n","        (location_conv): ConvNorm(\n","          (conv): Conv1d(2, 32, kernel_size=(31,), stride=(1,), padding=(15,), bias=False)\n","        )\n","        (location_dense): LinearNorm(\n","          (linear_layer): Linear(in_features=32, out_features=128, bias=False)\n","        )\n","      )\n","    )\n","    (decoder_rnn): LSTMCell(1536, 1024, bias=1)\n","    (linear_projection): LinearNorm(\n","      (linear_layer): Linear(in_features=1536, out_features=80, bias=True)\n","    )\n","    (gate_layer): LinearNorm(\n","      (linear_layer): Linear(in_features=1536, out_features=1, bias=True)\n","    )\n","  )\n","  (postnet): Postnet(\n","    (convolutions): ModuleList(\n","      (0): Sequential(\n","        (0): ConvNorm(\n","          (conv): Conv1d(80, 512, kernel_size=(5,), stride=(1,), padding=(2,))\n","        )\n","        (1): BatchNorm1d(512, eps=1e-05, momentum=0.1, affine=True, track_running_stats=True)\n","      )\n","      (1-3): 3 x Sequential(\n","        (0): ConvNorm(\n","          (conv): Conv1d(512, 512, kernel_size=(5,), stride=(1,), padding=(2,))\n","        )\n","        (1): BatchNorm1d(512, eps=1e-05, momentum=0.1, affine=True, track_running_stats=True)\n","      )\n","      (4): Sequential(\n","        (0): ConvNorm(\n","          (conv): Conv1d(512, 80, kernel_size=(5,), stride=(1,), padding=(2,))\n","        )\n","        (1): BatchNorm1d(80, eps=1e-05, momentum=0.1, affine=True, track_running_stats=True)\n","      )\n","    )\n","  )\n",")"]},"metadata":{},"execution_count":2}],"source":["import torch\n","tacotron2 = torch.hub.load('NVIDIA/DeepLearningExamples:torchhub', 'nvidia_tacotron2', model_math='fp16')\n","tacotron2 = tacotron2.to('cuda')\n","tacotron2.eval()"]},{"cell_type":"code","execution_count":3,"metadata":{"id":"para
…
calhost:8080/"},"executionInfo":{"status":"ok","timestamp":1685281237260,"user_tz":-330,"elapsed":36141,"user":{"displayName":"Jyoti Seth","userId":"14564263825003331288"}},"outputId":"074fdca4-aafb-4924-8023-c6013bbf5c6d"},"outputs":[{"output_type":"stream","name":"stderr","text":["Using cache found in /root/.cache/torch/hub/NVIDIA_DeepLearningExamples_torchhub\n","Downloading checkpoint from https://api.ngc.nvidia.com/v2/models/nvidia/waveglow_ckpt_amp/versions/19.09.0/files/nvidia_waveglowpyt_fp16_20190427\n"]},{"output_type":"execute_result","data":{"text/plain":["WaveGlow(\n","  (upsample): ConvTranspose1d(80, 80, kernel_size=(1024,), stride=(256,))\n","  (WN): ModuleList(\n","    (0-3): 4 x WN(\n","      (in_layers): ModuleList(\n","        (0): Conv1d(512, 1024, kernel_size=(3,), stride=(1,), padding=(1,))\n","        (1): Conv1d(512, 1024, kernel_size=(3,), stride=(1,), padding=(2,), dilation=(2,))\n","        (2): Conv1d(512, 1024, kernel_size=(3,), stride=(1,), padding=(4,), dilation=(4,))\n","        (3): Conv1d(512, 1024, kernel_size=(3,), stride=(1,), padding=(8,), dilation=(8,))\n","        (4): Conv1d(512, 1024, kernel_size=(3,), stride=(1,), padding=(16,), dilation=(16,))\n","        (5): Conv1d(512, 1024, kernel_size=(3,), stride=(1,), padding=(32,), dilation=(32,))\n","        (6): Conv1d(512, 1024, kernel_size=(3,), stride=(1,), padding=(64,), dilation=(64,))\n","        (7): Conv1d(512, 1024, kernel_size=(3,), stride=(1,), padding=(128,), dilation=(128,))\n","      )\n","      (res_skip_layers): ModuleList(\n","        (0-6): 7 x Conv1d(512, 1024, kernel_size=(1,), stride=(1,))\n","        (7): Conv1d(512, 512, kernel_size=(1,), stride=(1,))\n","      )\n","      (cond_layers): ModuleList(\n","        (0-7): 8 x Conv1d(640, 1024, kernel_size=(1,), stride=(1,))\n","      )\n","      (start): Conv1d(4, 512, kernel_size=(1,), stride=(1,))\n","      (end): Conv1d(512, 8, kernel_size=(1,), stride=(1,))\n","    )\n","    (4-7): 4 x WN(\n","      (in_layers): ModuleList(\n","        (0): Conv1d(512, 1024, kernel_size=(3,), stride=(1,), padding=(1,))\n","        (1): Conv1d(512, 1024, kernel_size=(3,), stride=(1,), padding=(2,), dilation=(2,))\n","        (2): Conv1d(512, 1024, kernel_size=(3,), stride=(1,), padding=(4,), dilation=(4,))\n","        (3): Conv1d(512, 1024, kernel_size=(3,), stride=(1,), padding=(8,), dilation=(8,))\n","        (4): Conv1d(512, 1024, kernel_size=(3,), stride=(1,), padding=(16,), dilation=(16,))\n","        (5): Conv1d(512, 1024, kernel_size=(3,), stride=(1,), padding=(32,), dilation=(32,))\n","        (6): Conv1d(512, 1024, kernel_size=(3,), stride=(1,), padding=(64,), dilation=(64,))\n","        (7): Conv1d(512, 1024, kernel_size=(3,), stride=(1,), padding=(128,), dilation=(128,))\n","      )\n","      (res_skip_layers): ModuleList(\n","        (0-6): 7 x Conv1d(512, 1024, kernel_size=(1,), stride=(1,))\n","        (7): Conv1d(512, 512, kernel_size=(1,), stride=(1,))\n","      )\n","      (cond_layers): ModuleList(\n","        (0-7): 8 x Conv1d(640, 1024, kernel_size=(1,), stride=(1,))\n","      )\n","      (start): Conv1d(3, 512, kernel_size=(1,), stride=(1,))\n","      (end): Conv1d(512, 6, kernel_size=(1,), stride=(1,))\n","    )\n","    (8-11): 4 x WN(\n","      (in_layers): ModuleList(\n","        (0): Conv1d(512, 1024, kernel_size=(3,), stride=(1,), padding=(1,))\n","        (1): Conv1d(512, 1024, kernel_size=(3,), stride=(1,), padding=(2,), dilation=(2,))\n","        (2): Conv1d(512, 1024, kernel_size=(3,), stride=(1,), padding=(4,), dilation=(4,))\n","        (3): Conv1d(512, 1024, kernel_size=(3,), stride=(1,), padding=(8,), dilation=(8,))\n","        (4): Conv1d(512, 1024, kernel_size=(3,), stride=(1,), padding=(16,), dilation=(16,))\n","        (5): Conv1d(512, 1024, kernel_size=(3,), stride=(1,), padding=(32,), dilation=(32,))\n","        (6): Conv1d(512, 1024, kernel_size=(3,), stride=(1,), padding=(64,), dilation=(64,))\n","        (7): Conv1d(512, 1024, kernel_size=(3,), stride=(1,), padding=(128,), dilation=(128,))\n","      )\n","      (res_skip_layers): ModuleList(\n","        (0-6): 7 x Conv1d(512, 1024, kernel_size=(1,), stride=(1,))\n","        (7): Conv1d(512, 512, kernel_size=(1,), stride=(1,))\n","      )\n","      (cond_layers): ModuleList(\n","        (0-7): 8 x Conv1d(640, 1024, kernel_size=(1,), stride=(1,))\n","      )\n","      (start): Conv1d(2, 512, kernel_size=(1,), stride=(1,))\n","      (end): Conv1d(512, 4, kernel_size=(1,), stride=(1,))\n","    )\n","  )\n","  (convinv): ModuleList(\n","    (0-3): 4 x Invertible1x1Conv(\n","      (conv): Conv1d(8, 8, kernel_size=(1,), stride=(1,), bias=False)\n","    )\n","    (4-7): 4 x Invertible1x1Conv(\n","      (conv): Conv1d(6, 6, kernel_size=(1,), stride=(1,), bias=False)\n","    )\n","    (8-11): 4 x Invertible1x1Conv(\n","      (conv): Conv1d(4, 4, kernel_size=(1,), stride=(1,), bias=False)\n","    )\n","  )\n",")"]},"metadata":{},"execution_count":3}],"source":["waveglow = torch.hub.load('NVIDIA/DeepLearningExamples:torchhub', 'nvidia_waveglow', model_math='fp16')\n","waveglow = waveglow.remove_weightnorm(waveglow)\n","waveglow = waveglow.to('cuda')\n","waveglow.eval()"]},{"cell_type":"code","execution_count":14,"metadata":{"id":"fram
…
